…
if not os.path.exists(logdir):
 os.mkdir(logdir)
model.save(logdir+'/final_CNN_model.h5')
HCIA-AI 实验指导手册 第46页
3.3.5 预测结果可视化
3.3.5.1 加载 CNN 保存模型
代码：
输出：
用将预测结果可视化
代码：
10000/10000 [==============================] - 5s 489us/sample - loss: 0.0263 - acc: 0.9920s - loss: 0.0273
- ac
Test Accuracy 0.99
from tensorflow.keras.models import load_model
new_model = load_model('./mnist_model/final_CNN_model.h5')
new_model.summary()
_________________________________________________________________
Layer (type) Output Shape Param #
=================================================================
conv2d (Conv2D) (None, 28, 28, 32) 832
_________________________________________________________________
max_pooling2d (MaxPooling2D) (None, 14, 14, 32) 0
_________________________________________________________________
conv2d_1 (Conv2D) (None, 14, 14, 64) 18496
_________________________________________________________________
max_pooling2d_1 (MaxPooling2 (None, 7, 7, 64) 0
_________________________________________________________________
dropout (Dropout) (None, 7, 7, 64) 0
_________________________________________________________________
flatten (Flatten) (None, 3136) 0
_________________________________________________________________
dense_4 (Dense) (None, 128) 401536
_________________________________________________________________
dropout_1 (Dropout) (None, 128) 0
_________________________________________________________________
dense_5 (Dense) (None, 10) 1290
=================================================================
Total params: 422,154
Trainable params: 422,154
Non-trainable params: 0
_________________________________________________________________
HCIA-AI 实验指导手册 第47页
输出：
#测试集输出结果可视化
import matplotlib.pyplot as plt
%matplotlib inline
def res_Visual(n):
 final_opt_a=new_model.predict_classes(X_test[0:n])# 通过模型预测测试集
 fig, ax = plt.subplots(nrows=int(n/5),ncols=5 )
…
